Day3/Practical/500IterationsTrainedThetasLambdas0_1_10_100.npz (npz, 612413 bytes, 4 tensors)

thetaListLambdaZero f8 [19885]
0	0x3ffb714ba4592c5d	1.7151600284439816
1	0xbf8e0adf4480d340	-0.01466917445950744
2	0x3fb60841f139530e	0.08606350077873179
3	0x3fa840a94e70f604	0.04736832697424734
4	0xbfb8ef09d482fb52	-0.09739743650696411
5	0x3fbd38e48aed2598	0.11414936439282142
6	0x3fb00b5f5322f6f0	0.0626735284776847
7	0x3fb1936708927b56	0.06865543326646892
8	0xbfb6d9444c844eaf	-0.08925272815786899
9	0xbf8862e4ce633f40	-0.011907374905063883
10	0xbf9fc0af7a1464bc	-0.0310084741841805
11	0x3fba386ed0d8040e	0.10242359732366443
12	0x3fa1ad9af92cd6c8	0.0345276288193595
13	0x3fb3d4e0df9cd1f1	0.07746701678554026
14	0xbf8ba03e31a43599	-0.013489232912003145
15	0xbfb0bc2d37301efd	-0.06537134740221613
16	0x3f8ad659fb597729	0.013104155524327492
17	0xbfbacc8fb4d3b026	-0.10468385853499793
18	0x3fb421315886a746	0.0786314812782197
19	0x3fa02dcdca5f72c0	0.03159945578929557
20	0x3fafb6bd0184f17c	0.06194105762048971
21	0xbfa1e037a476b842	-0.0349137676488316
22	0x3fbceb70950e69ba	0.11296752585477679
23	0x3fb82742b64457d0	0.09434906911732743
24	0x3fb11a9803c34058	0.06681203929770285
25	0xbfb2c2eaf72d78c8	-0.07328671011552779
26	0xbf805b778138a728	-0.007986959105511796
27	0xbfbc0758a98f7ee6	-0.10948709621106509
28	0xbfb53d8e5e1bdbd8	-0.08297052190378851
29	0x3fa67e38e0844e58	0.04393174877818912
30	0x3fae138d3a5ce154	0.0587429174178761
31	0x3fbcb94ad2ba5dd4	0.1122023357842104
32	0xbfa5670f7b7b9842	-0.04180191404684354
33	0xbf9fd5f8790cf9bc	-0.031089670551631463
34	0xbf7ded87ec81c070	-0.007306605293806098
35	0xbfb440eb19a2e9bf	-0.07911557556045688
36	0xbfb8879183d24c31	-0.09581860988900882
37	0xbf77a7f4183bad5d	-0.00577540730931089
38	0xbfb02e56cfa9ab66	-0.06320707864658245
39	0x3fa068c7b1b7a49b	0.03204940838242828
40	0xbfbc964639cc5218	-0.11166800414168454
41	0x3f813623b688fd30	0.008404044158963758
42	0x3fa534e6b37d29da	0.04141922894503454
43	0xbfa7903e6d9af980	-0.04602236831623241
44	0x3fb111a85778eeb2	0.06667568336063814
45	0x3fadc0bfb7e228e2	0.05811118240042547
46	0xbf9c0a68c290055e	-0.027383458018453204
47	0xbfaa1d4e3649e9ca	-0.05100483334259172
48	0x3fa656cb175fc62a	0.04363093052223761
49	0xbfb62a0a4c30d1eb	-0.0865789829266032
50	0xbfb2755398a5a004	-0.07210276104672181
51	0xbfbe50fc00a93664	-0.11842322364938124
52	0x3fb1914fce3abdc5	0.06862353119753724
53	0x3fa441c27222737c	0.0395642055820877
54	0x3fa935f1dbe806b0	0.04923969087032043
55	0x3fb13f7c61bf1b3a	0.0673749674452723
56	0xbf84319780da6890	-0.009860213870798412
57	0x3f90e4d274f72348	0.016497887028694508
58	0xbfb62180db1c6e3d	-0.0864487204493622
59	0xbfb7aeeaeea93cd6	-0.09251278235136637
60	0x3fa4b17fc67375ac	0.04041671082971318
61	0xbf7c7c7f43574136	-0.006954667207040457
62	0x3f9007981f39ca59	0.01565396967493835
63	0x3faf7557a3118a45	0.06144212594587776
64	0x3f858bcf0bd7074e	0.01052057032473255
65	0xbf8c63a5c25ca67f	-0.013861937517123167
66	0x3f9b5e42e8614a1c	0.026726766045905945
67	0xbfb5c20b51093144	-0.08499212959686014
68	0xbfd085e57d9de325	-0.2581723906255767
69	0xbfc3e423791b1e83	-0.15539973653197955
70	0xbfb754633530def7	-0.09113140152555475
71	0xbfb02cec513d0943	-0.06318547232971121
72	0x3f7cfae2c0cc9fcd	0.007075200800308279
73	0xbfb026d14e83a9ca	-0.06309230963567028
74	0xbfbf68efed8389de	-0.12269496487309747
75	0xbfb39402f337445e	-0.07647722661865106
76	0xbfafd54d1f4f33e8	-0.062174234458872324
77	0x3f9ff1ff0c600fb6	0.031196580057453814
78	0x3f8843155d0d21f3	0.01184670152874021
79	0x3fb11ebfd4f038a5	0.06687544773760352
80	0x3fa3e548888329a9	0.03885866800699784
81	0xbf970247dfcd8345	-0.02246963790401259
82	0x3fb34d0156dc924a	0.07539375658650119
83	0xbfb47610243e2f3c	-0.07992649922215106
84	0xbfbd531708ccbdbc	-0.11454910244787347
85	0xbfb92ffd576a1e5c	-0.09838851341384597
86	0x3fab52d2029c3f90	0.053366244143148056
87	0xbf82bcf45ea985f8	-0.009149464739667032
88	0xbfb4cf7651d15759	-0.08129062173369785
89	0x3f319a8dd8172344	0.00026861155501172276
90	0xbfb4eece9ad6dbfd	-0.08176890640503127
91	0x3fa471d206a6ede7	0.03993088084413526
92	0xbfca5f81a5772434	-0.20603962497105643
93	0xbfcde7a78f368d24	-0.23363203518702236
94	0xbfca7edf5df6eb44	-0.2069968422709626
95	0xbfc20a20e9e1bef5	-0.14093409938822501
96	0xbfe436c2d9132702	-0.6316847076170407
97	0xbfe5681bba43cf6d	-0.6689585340486538
98	0xbfa249aa8f4fe91e	-0.03571827887931732
99	0x3fd3c244915f40a6	0.3087321681641789
100	0x3fa91e76fec51bb2	0.04906055316910542
101	0x3fc50aef7f28f981	0.16439622601496853
102	0xbfa1b0abffe8431d	-0.034551024426155964
103	0x3fb4d1c2895c1b06	0.08132568219671663
104	0x3fc1e30fd69692a6	0.13974187829912416
105	0x3fcea8fa8914e147	0.23953181928096454
106	0x3fc05352fd526f40	0.12754285210837146
107	0xbfa9f6c6a18c603a	-0.05071087572122264
108	0xbfbdce741ca91c6b	-0.11643148135873253
109	0x3fb2827e958d65d1	0.07230368758373308
110	0xbf91f2727939b492	-0.017526425026904997
111	0xbfb2496b636e5822	-0.07143279244914472
112	0xbfa7d813a992d908	-0.04657041020384339
113	0x3f937810777f0e70	0.01901269654605503
114	0xbfb3dbecae59472d	-0.07757453209458438
115	0x3fb5e8d252884984	0.08558382525396807
116	0x3fafec6a772bbaa7	0.06235058502885709
117	0x3fad555005e8bc20	0.05729150840885944
118	0x3f707d0a9b444182	0.004025498801880524
119	0x3fb18e90391f8ebe	0.0685815944157708
120	0xbfa3c39496fdc281	-0.03860153525500199
121	0x3fc4df31289a77be	0.16306128008448967
122	0x3fd0446ecf89a3da	0.2541768099532057
123	0xbfcfe82fa83d1e58	-0.2492732593038791
124	0xbf90b731f1db4488	-0.016323833834409857
125	0x3fe0566f2a0c402c	0.5105510541197922
126	0x3ff049178480d27b	1.0178446937472063
127	0x3fdb0874c717d3f2	0.42239112322505357
128	0xbfe0a8db7ac06e38	-0.5206124684804712
129	0xbfd4d1a961e6b1c2	-0.3252967315736691
130	0xbf4f20dcb4dc6c82	-0.0009499623936081311
131	0x3fc3eeb432f8fbab	0.1557221650018311
132	0xbf95bdb7d7422dcd	-0.021231529725396037
133	0xbf9152357472003d	-0.016915164215334
134	0x3fb68430978a64de	0.08795455646249503
135	0xbfc6b4bafcf3741d	-0.1773904547798403
136	0x3fb74d891764d3e6	0.09102684804095382
137	0xbf65e9b1f84f37d7	-0.002674911115241745
138	0x3fb0ad775b39af4f	0.06514688470059336
139	0xbfb99f02be167907	-0.1000825609284882
140	0xbf6a3b14fb524d80	-0.0032020005988415146
141	0xbf624552a8ecff20	-0.0022303213549149797
142	0x3fbae66a294e4e2c	0.10507834919399589
143	0x3f9210f4fd14bfa1	0.017642810770837184
144	0xbf734f1cffde23f1	-0.0047141201774900535
145	0xbfaa1ed85dca4bff	-0.05101658005619213
146	0x3f7f1df8558540a3	0.007596941046657121
147	0xbfac0a722f30ae7e	-0.054767196903722656
148	0x3fc19d4479aa6c1e	0.13761192265232663
149	0xbfc0bc7f3335180a	-0.13075246811257585
150	0x3f8cdd0be27b49be	0.014093487595720041
151	0x3fe2786e80eda25b	0.5772011297349978
152	0x3fded19e3d7b50c6	0.48154407505104435
153	0x3fde245bf143df67	0.47096918641135804
154	0x3fc4eb306a988937	0.16342740254283125
155	0x3fccf174e40b85be	0.22611867079744558
156	0x3fd26adea26b21d0	0.28777280675106187
157	0x3fe7ddf1207c72a7	0.7458425173277491
158	0x3fb8c2b17f22b448	0.0967207847013053
159	0xbf911f3e61967ffa	-0.01672074766759122
160	0x3f95ae02fb1d8a8a	0.02117161424338091
161	0x3f9667b620df8c2d	0.021880002743170635
162	0xbfacce1c3e6ac0df	-0.056259997004760136
163	0xbfc5b5a1564dc7e5	-0.1696054145245959
164	0x3fb8a23502d75a1c	0.09622508353582088
165	0x3fc52abbb6d36067	0.16536661555324203
166	0x3fb34021b3477272	0.07519732119494352
167	0x3fb0991e2890da0a	0.06483639231087338
168	0xbfa6785024048544	-0.04388666572254832
169	0x3fbbd37dd5a60e66	0.1086958548167388
170	0xbfa9b127f6bc3b62	-0.05017971884637153
171	0xbf96af2c7849a86c	-0.02215260967424408
172	0xbfbe7cae05a3d3a7	-0.11908996236509371
173	0xbf7d83885940e0a2	-0.007205517398738122
174	0x3fc036e2daccd47c	0.12667499240493274
175	0x3fe4bd9263a7541e	0.6481410929069431
176	0x3fbbd41570389b4e	0.10870489110730583
177	0x3fb128f92a18a08d	0.06703145292033437
178	0x3fd6626514423af9	0.3497555444563854
179	0x3fd3f2109fcb6a66	0.3116494713300767
180	0xbfe34db48feb8361	-0.603235512822817
181	0x3f907043161bf2c1	0.016053245758473226
182	0xbfd90f3d41e25faa	-0.3915551322365852
183	0x3fd442dd2b12285b	0.31658105093140926
184	0x3fe41aeb06798cd8	0.6282858969174425
185	0x3fdc7f435f1f9625	0.4452675274791054
186	0xbfd3f9437e58960c	-0.31208884561996864
187	0x3fc2cc0ea00d7ce8	0.14685232939789405
188	0x3fd2014b1e6bf191	0.28132894488205645
189	0x3fe3b15d76e1cddd	0.615401012603282
190	0x3fd447f50e71e85f	0.3168919220985397
191	0x3fbb843f9fdd517b	0.107486702470231
192	0x3fcb485df782130f	0.21314596734387023
193	0x3fd5189b2cf9b71c	0.3296268405164129
194	0xbfb2a2db070d144f	-0.0727974788870409
195	0xbfb36c87642cac86	-0.07587476916948974
196	0x3f97c22ca89a3b58	0.023201654234579067
197	0x3fb70359fbc5d510	0.08989488980099147
198	0xbfb2b038c17d2441	-0.07300142978523728
199	0xbfb941dab2f531f5	-0.09866110676848179
200	0xbfab63aace5e695c	-0.05349477547788936
201	0x3f8cbe7b897ccfe9	0.014035191663062068
202	0x3fe08cc12392528a	0.5171819395787491
203	0xbfc4a98fd4125f5b	-0.16142461638514302
204	0xbfe0d81001b9b94f	-0.5263748201084953
205	0xbfc1d6f78ca73a91	-0.13937277191003664
206	0xbfcdd91af6ec7aa0	-0.2331880288774828
207	0x3fdad391787bdd4e	0.419163100872045
208	0x3fc1fcc120e4c94a	0.14052595239770432
209	0x3fdef72ad2ca6384	0.48383589348809886
210	0x3f9da18eca4b20f4	0.02893660649968495
211	0x3fec386cb72d89b7	0.8818877771084804
212	0x3ff2d9c344e3b6ba	1.178164738750111
213	0x3fdf286709544236	0.48684097205208177
214	0x3fcfc5e42a37814b	0.24822666226737974
215	0xbfef91a5868a6757	-0.9865291240450728
216	0x3fe21a3afab360dd	0.5657019516466125
217	0x3fd7769239b9bbf9	0.3666120113111329
218	0x3fdd4b7b616c597c	0.4577320529364426
219	0x3faffb5f57c724bf	0.06246469446666358
220	0x3fd88e8554cba8d4	0.38369878083052567
221	0x3fd50d92c25267f0	0.3289534471201696
222	0x3fcef5bfaa5d3d53	0.2418746549469498
223	0x3fc9fae2cac73b58	0.20296893025666907
224	0xbfaa9702e27166d0	-0.05193337454029534
225	0x3fba19a8aaa1665e	0.10195402303488652
226	0xbfc1d002ced4c334	-0.13916049098181704
227	0xbfc77d1a819adb10	-0.18350535705914028
228	0xbfdc88fab93010cb	-0.4458605583643133
229	0xbfbbd69b054deb8f	-0.10874337081433637
230	0x3fdc682a316a504a	0.44385771585189515
231	0x3ff1919fd3a70c8c	1.0980528133084446
232	0xbff33d30e2e14ee8	-1.2024391996864612
233	0xbfa507c7d2177dba	-0.04107498588177401
234	0x3fd809658022a80a	0.37557351601810807
235	0xbfdb3300262454c4	-0.42498782849117966
236	0xbfc893beb78f5792	-0.19200881922614293
237	0x3fc905e5704212c3	0.19549243909218292
238	0xbfe592f9dc90753c	-0.6741914089103953
239	0x3fbf4054c669339b	0.12207536548630886
240	0x3f9ed69751335b4a	0.030115475016681693
241	0xbfdeffc8c3e0238f	-0.48436183098288493
242	0x3fd9567866748cda	0.39590272908590196
243	0x3fc829cc264a12c1	0.18877555722806075
244	0x3fd516b75c4c19fe	0.3295114899960082
245	0xbfd3907cbc97dc7f	-0.30569380204492086
246	0xbfe0f752173ebfeb	-0.5301905111318751
247	0x3fe5e56c03cc7b87	0.6842556070513276
248	0xbfb9ca8655b35d41	-0.10074653236676047
249	0x3fc77810ed934e9a	0.18335162735330784
250	0x3fd96194fad86866	0.3965809297238877
251	0x3fce407b117b55d7	0.23634279588320226
252	0xbf86a91d60c0f758	-0.011064748301688063
253	0xbfaefc480ea00759	-0.06051850489167405
254	0xbfc1414be4e16254	-0.1348051898555861
255	0xbfceefd14e39083a	-0.24169365233871237

thetaListLambdaOne f8 [19885]
0	0x3ff3e95204c59724	1.2444629846954252
1	0x3f3f610fd4339875	0.00047880779693654864
2	0xbf67033598b69c25	-0.0028091475303031626
3	0xbf5954e731457a2f	-0.0015461213816575605
4	0x3f6a0b09e7c620cf	0.0031790917839239273
5	0xbf6e85bd65a16976	-0.003725881496433543
6	0xbf60c21f1ca00c78	-0.0020456893589667034
7	0xbf625b981f13f6ba	-0.002240941154581258
8	0x3f67dd849c094151	0.002913245203935024
9	0x3f3978a89b389deb	0.000388661540656503
10	0x3f50952d68cfefc0	0.0010121291591067422
11	0xbf6b6316c2714ee4	-0.0033431477091115814
12	0xbf5276f68472c430	-0.0011269957920314704
13	0xbf64b6d86304431a	-0.002528593664586143
14	0x3f3cccd3e18f4def	0.00043945477369541815
15	0x3f61790844882991	0.002132908008438857
16	0xbf3c089ed7176d29	-0.00042775991377448863
17	0x3f6bfdcedce6c83e	0.003416923550696032
18	0xbf6506793c226179	-0.0025665634030468923
19	0xbf50e615c2609ba6	-0.0010314190381081972
20	0xbf608ffb86208e44	-0.0020217812134591135
21	0x3f52abd3aac582a6	0.001139599519852799
22	0xbf6e34d73b5a4990	-0.0036873058077812673
23	0xbf693a5f474141fa	-0.0030795918374126848
24	0xbf61dd691161a2b4	-0.002180772028669809
25	0x3f63989d2757ddf1	0.0023921079070949804
26	0x3f3115c79564a35a	0.0002606975807731192
27	0x3f6d4699484a6820	0.003573703174265766
28	0x3f662f7d36416109	0.002708191446839096
29	0xbf577e6c2bdf1268	-0.0014339500771579864
30	0xbf5f6a20a6a19e27	-0.0019173926216583621
31	0xbf6e00764865f651	-0.0036623296938944967
32	0x3f565ad711cbf8cc	0.0013644314087169372
33	0x3f50a04b20defd08	0.0010147794414335238
34	0x3f2f426a48820d42	0.0002384905567432792
35	0xbf86370af655c9e2	-0.010847173349905984
36	0xbf911930117bca99	-0.01669764620505507
37	0x3f44635f7ab56f7a	0.0006221977431937053
38	0x3f88ba06fc9c131a	0.012073568901095611
39	0xbf5b4cd333ac0bc5	-0.0016662657278068021
40	0xbf9061d3cb639123	-0.015998181618571593
41	0xbf81f941638918c0	-0.008776198244174416
42	0x3f662e0750d750f5	0.002707495010989653
43	0x3f457300479d460b	0.0006545783391890837
44	0xbf717abecc3e5605	-0.004267449668892369
45	0xbf71c8f447521531	-0.004342035496965922
46	0x3f441cfb8a9a5aa4	0.0006138065557078254
47	0x3f5aac51fcf7b5c5	0.0016279984155248433
48	0xbf57523707cf2117	-0.0014234101683872674
49	0x3f673278dfc4ae10	0.002831684190956592
50	0x3f634d27fda71fa0	0.0023561268874096736
51	0x3f6f441886d4d025	0.0038166502987682254
52	0xbf62e84652eeeae5	-0.002308022834282541
53	0xbf55287d46f7e192	-0.0012913916979170087
54	0xbf5a551992621bb3	-0.0016072034573271054
55	0xbf6203f1a4952bef	-0.002199146231452335
56	0x3f35179a2e4f420d	0.000321841375179794
57	0xbf41a53f0a257b81	-0.0005384977160182021
58	0x3f671d94107868e5	0.0028217212564075494
59	0x3f68bcacc4eb3006	0.003019654693479981
60	0xbf559d3357ab089a	-0.0013192178145549406
61	0x3f2d817065b3df67	0.0002251100257593078
62	0xbf40cdac39a9ea70	-0.0005127993529890473
63	0xbf818e87870a0d9d	-0.008572634514399985
64	0xbfad413086390bcb	-0.05713798178160053
65	0xbfa17dfda163097b	-0.03416435809187398
66	0x3f73842df56cb9b9	0.004764728094228615
67	0xbfa26e71871ae957	-0.03599886678917368
68	0xbfae6073e68f57eb	-0.05932962598278365
69	0xbfbc7f5cbdf73417	-0.11131839406807874
70	0xbfa937c9fcf8b1dc	-0.04925376141577306
71	0xbfa04ba5758c34a4	-0.03182713565738851
72	0xbf78ee5c31318e93	-0.0060866929298729775
73	0x3fbfd26a0c61dc0d	0.12430441667844168
74	0xbf80fbbac0d8b194	-0.00829263592739763
75	0xbfa2eeeef260f224	-0.03697916706775953
76	0xbf8014e7de650c95	-0.007852374529312459
77	0xbf8df4c22a0c0dbf	-0.014626995952773279
78	0xbf61564a9aa0e088	-0.002116342268916386
79	0xbf682a93fa18ab49	-0.0029499902891720092
80	0xbf59539ccf450972	-0.001545813688679756
81	0x3f48081e6f1fa54c	0.0007333897212877054
82	0xbf6428eba9b02999	-0.00246091869258187
83	0x3f655f1eb85ee4f3	0.002608833313357034
84	0x3f6ea11a47c6c4cb	0.0037389291084869206
85	0x3f6a4ee13955700b	0.0032114409356562893
86	0xbf5c8a0a6745d2bc	-0.001741895827845826
87	0x3f339262a2994ce2	0.00029864223561055895
88	0x3f65bc7c456b6ca1	0.0026533534213349507
89	0x3ee6a4ee280762bb	1.0797624100543153e-05
90	0x3f6266abc0924c39	0.002246222928599131
91	0xbf8e46ba7819214e	-0.014783341207604519
92	0xbfc3cedcf750e3e0	-0.15475046230292744
93	0xbfbf9b6410f655d6	-0.12346482671849598
94	0xbfb5eb88325b3d66	-0.08562518338589128
95	0xbfc0b0037697d516	-0.13037150660208202
96	0xbfd9eb64b209ebcb	-0.40499226938817107
97	0xbfccf63348181228	-0.22626343746391453
98	0x3fc31a7ec5dd4001	0.14924606953945843
99	0x3fc466778a3fb000	0.15937704325131108
100	0xbfb29811b3ac2ac3	-0.0726328910497314
101	0x3fcff7228ca4aa02	0.2497294604048222
102	0x3fb981164caa232d	0.09962596294111555
103	0xbfb9ea2dde31db99	-0.10122954058338819
104	0xbfb2e1282adb2b4e	-0.07374812170307374
105	0x3fada677e269df32	0.057910677326559315
106	0x3fc0613643fd0122	0.12796667403927936
107	0x3f599b29a803a20a	0.0015628725814683686
108	0xbf7d395d4db6e1b5	-0.007134785143926005
109	0x3f95131e4a737b77	0.02058074311650723
110	0x3f7fcedc376dec0b	0.007765636654649031
111	0x3f6319b5afacc537	0.0023315952834301007
112	0x3f58e7aa4f47c369	0.0015200770550302895
113	0xbf4455d1f30d694a	-0.0006205821174305817
114	0x3f64be1f976219e8	0.0025320641535160233
115	0xbf66e250ddfee06f	-0.002793462699596509
116	0xbf61b5e29d925808	-0.0021619249424231803
117	0x3f4596a602b32492	0.0006588278387421756
118	0x3f7c4b43463c24e3	0.006907713690233327
119	0xbfac3244c72f4eb1	-0.055071019472646816
120	0xbfced0e0048bc747	-0.24074936124776
121	0xbfc291820d94d123	-0.14506555236005977
122	0x3f9a138b1002b213	0.025465176441388303
123	0xbfb1a9803a33ed39	-0.0689926282974981
124	0x3fc610af07755271	0.17238414634870794
125	0x3fde3385f85266d4	0.47189473390754455
126	0x3fddb02773497ba8	0.46387659319401076
127	0x3fc64a6212f29e2f	0.17414499211484855
128	0x3fbc561628cec58d	0.11068857666284355
129	0x3fd630ea2e852037	0.3467355207726572
130	0x3fa10e97fd064cfc	0.0333144661300597
131	0x3f5e524ae20abb7a	0.0018506747511925757
132	0x3fbfbfcd4c59ee89	0.12402041544003785
133	0x3fc1a82aef38efc3	0.13794457131177582
134	0xbfdae9552c497e07	-0.4204914982310303
135	0xbfd1f7aca9dcc266	-0.2807418497859885
136	0xbfb1c5ac509b7728	-0.06942250221206037
137	0x3fb092f046d6e8fc	0.06474210481147574
138	0x3f7b63d1ed0584ef	0.006686992667114241
139	0x3f701c218b5fba75	0.0039330778435969676
140	0x3f1b65db195d6b69	0.0001045145966975088
141	0x3f13156e4bf17ac2	7.279859254214884e-05
142	0xbf6c18cfcae5c391	-0.0034297998856164876
143	0xbf4978490ad10739	-0.000777278580820196
144	0x3f82a40cb4788f00	0.00910196233514382
145	0xbf80725d639b4af3	-0.008030633547070098
146	0xbfafab7d92737cad	-0.06185524380429661
147	0xbfa94284b04b06aa	-0.049335619468832206
148	0xbfd16f0a26d80f77	-0.27240232270582204
149	0xbfd5d32a86cd17f5	-0.34101355709242337
150	0x3fc54c9618cc3af0	0.16639972887829613
151	0x3fe14a174a7dc456	0.5402943091304546
152	0x3fe0afb54c88a3d0	0.5214487547683522
153	0x3fe1457714f82402	0.53972963424269
154	0xbfb3344039890207	-0.07501603512447029
155	0x3fc51c38f8b9cf70	0.16492378372970107
156	0x3fdb91dfa9603d59	0.4307784227430225
157	0x3fb9bc7ed335faca	0.10053246170535171
158	0xbfd69565b6a0b15c	-0.3528684886430449
159	0x3fac6419aa3bace5	0.05545120432892662
160	0x3fd7c4618a47735a	0.3713611460096239
161	0xbf9569f453575ddc	-0.020911996447322653
162	0xbfbb0e389b78aebe	-0.10568574710549236
163	0xbfd8897cea478c92	-0.3833915984998352
164	0xbfca4b7db43138a2	-0.20542880342913344
165	0x3fc4a8ae342de669	0.16139771983926046
166	0x3faac9af5d18cb8f	0.052319984545099556
167	0x3f963af0ab976c55	0.021709213708032433
168	0x3f57784021014757	0.0014324785479584345
169	0xbf6d106fd1741b5d	-0.0035478767346179122
170	0x3f5ad5cb140d172a	0.0016378863512768829
171	0xbf94cd4510b47f0f	-0.020314292091938187
172	0xbfb91c0267298de6	-0.09808363932238925
173	0xbfb9064a7e634d93	-0.09775224290506505
174	0xbf8c15a090111464	-0.013713125607077888
175	0x3fd02a68325a7634	0.25258831898995315
176	0x3fce210e055421aa	0.23538375148951945
177	0x3fb516185b27d583	0.08236839509466702
178	0x3fd9c3f2cafb47a1	0.40258474180620324
179	0x3fd913e1bbd257eb	0.39183848707159424
180	0xbfc78b38293a4cec	-0.18393613827775057
181	0x3fb7ebcca8dafea9	0.0934417640919444
182	0x3f95fc07af78b109	0.021469230732848597
183	0x3fd98f8fc4933d3f	0.3993873042754394
184	0x3fddda18dc4e17b9	0.4664365912834643
185	0x3fd9ba2289edb279	0.4019857737501194
186	0xbfd1c7b7d97f4d54	-0.2778148292538465
187	0x3fce0c1df4f56c98	0.23474478207467508
188	0x3fc7b4cd24085923	0.18520511874584952
189	0x3fcd485507b27f34	0.22876990199892477
190	0x3fb0a968801cf6ee	0.06508496406328465
191	0xbf98ee21f5b36ed0	-0.02434590398921338
192	0xbf92939fa7c23b5d	-0.018141264547519288
193	0x3fc0a6b365f5b1ca	0.13008730391028528
194	0x3fb49ca5933d3880	0.08051524014192246
195	0x3fab2bb1f5007a4e	0.053067742497877476
196	0xbf5cd0112e5e63af	-0.0017585914406252725
197	0xbf680979a5b31b1c	-0.002934205620110387
198	0x3f6205d8c2ae9df1	0.002200053558641939
199	0xbfa98233d3591474	-0.049821490811646024
200	0xbfcd22b984a99fc0	-0.22762221315065112
201	0xbfca1dc6e2b15a60	-0.20403371876701026
202	0x3fc38264cc2d5332	0.15241680116255335
203	0xbfb2c423d7221c5a	-0.07330535890842907
204	0xbfd993e5c4c8a7aa	-0.3996519490925673
205	0x3fbad989c0a3044b	0.1048818679146432
206	0x3f9b21f9c9fe9008	0.026496794656523576
207	0x3fbdb1f41d9b72d4	0.11599660609085599
208	0x3f76238c55518b05	0.005404995133263983
209	0x3f41da5ca08baa90	0.0005448295861161957
210	0xbfb410eace26dd13	-0.07838313611033625
211	0x3feaf64429573b08	0.842561798804895
212	0x3fed8164984a80c2	0.9220450376924634
213	0x3fd4c1e0c19eccc3	0.32433337124093614
214	0x3fc2e840f071ace3	0.14771281948501444
215	0xbfe62e400a423476	-0.6931457710612807
216	0x3fc2b3365ce40b4e	0.14609412704165908
217	0x3fe1982b081c9f82	0.5498252066072242
218	0x3fc74b0694c8bdfd	0.18197710289813065
219	0x3fb41cfc025ae269	0.07856726701255358
220	0x3fa6b26e1d093037	0.04433006386224785
221	0x3fccdacfa4d7e4a0	0.22542758511534533
222	0x3fd242b93aa46777	0.28532248236444196
223	0x3fc75b1333c95632	0.18246688870083144
224	0x3f5a4f3954c2c836	0.001605802523994016
225	0xbf6b42f2168b5154	-0.0033278206140982345
226	0xbf106bccdb81fbe0	-6.264150477085185e-05
227	0xbfb684070163d290	-0.08795207771238212
228	0xbfd5ab54ce529d8a	-0.33858223103239793
229	0xbfa562963cfeb623	-0.04176778311316933
230	0x3fd6213a1de4a16c	0.34577801627394567
231	0x3fe2b05db61a80ff	0.5840290600499712
232	0xbfe0deb2664dc71e	-0.5271846769448734
233	0xbfa4f927cdb90ca0	-0.04096340547814603
234	0x3fcafa2116c841e1	0.21075833904661948
235	0x3fa423b1fa81d25e	0.039334832982522924
236	0x3fc2b7f0c0c74cd1	0.14623841679585906
237	0x3fd222ea114a6c1a	0.2833810013632402
238	0xbfc081f660ae93e1	-0.12896613808439297
239	0xbfcbb21bf18f46ef	-0.2163729600420576
240	0x3fdf6c8e311754d5	0.4910006980329176
241	0xbfd693e834650843	-0.3527775298754287
242	0x3fe23289cfbe8ecc	0.5686692292697102
243	0xbfc860f98fd9055c	-0.190459437597421
244	0x3fcb8b984c457ca8	0.21519759868804056
245	0xbfcdead11f2e8145	-0.23372854254285805
246	0xbfdbda363b9f727f	-0.4351935941938691
247	0x3fd0269ee3427fdb	0.252357217725146
248	0xbfbcf65b3d2af112	-0.11313410037377405
249	0xbf8b7f1f1d0f8259	-0.013426058840139964
250	0x3fcdb4e887425260	0.23208338360258818
251	0x3fb6e6dd1edae4a5	0.08946020129487182
252	0x3f37ab393a31e8ba	0.00036115786696878547
253	0x3f602e9b28cbc48f	0.0019753485161052085
254	0xbf97b6f173d97284	-0.02315881032551427
255	0xbfcacb491051898d	-0.2093287782364083

thetaListLambdaTen f8 [19885]
0	0x3ff296926c8acd9c	1.1617607345513994
1	0xbefead95f8e6783b	-2.9256887097532858e-05
2	0x3f267f9644816267	0.00017164906808166404
3	0x3f18c4042d13ecbc	9.447360504914992e-05
4	0xbf29761525b0027b	-0.0001942539991830644
5	0x3f2dd729f927b1d0	0.0002276648270504015
6	0x3f2062455b29cc56	0.00012499901420745763
7	0x3f21f29859101af0	0.00013692960467911281
8	0xbf275504a4c6089c	-0.00017800981221333535
9	0xbef8e6f9153628e4	-2.3748624995025775e-05
10	0xbf103654b74d91d6	-6.184475007626282e-05
11	0x3f2ac6722c761d16	0.0002042784092106473
12	0x3f120d5a34b062f9	6.886351654634614e-05
13	0x3f26a4afc672df49	0.00017275472348443125
14	0x3f38128841ffe929	0.0003673155460998273
15	0x3f314a7dbba83d72	0.0002638394322795535
16	0x3f06507c64e26092	4.2561336713821e-05
17	0xbf2b5db558a0d940	-0.00020878637980254779
18	0x3f248e37ab1c34fe	0.00015682630105865592
19	0x3f10856e4e9ff2ef	6.302343140869212e-05
20	0x3f2031408b061233	0.0001235381400982602
21	0xbf124108fee20c8a	-6.96336498738228e-05
22	0x3f2d8812849ff739	0.00022530771303757595
23	0x3f28aa14020e6cd9	0.00018817419279746372
24	0x3f21773b03bc2701	0.00013325305359784131
25	0xbf23288828024560	-0.0001461664396669544
26	0xbef0b40f56656b9c	-1.5929564506005433e-05
27	0xbf2c9f2737585d28	-0.0002183661815002649
28	0xbf25b098d6458c06	-0.0001654802864648754
29	0x3f16f80c1ceca834	8.761953288841177e-05
30	0x3f1eb672f12b5387	0.00011715961981491166
31	0x3f2d54dd276c1a63	0.00022378158220011648
32	0xbf15dafabe913c7a	-8.337169096360618e-05
33	0xbf104132db00c777	-6.200669190617273e-05
34	0xbeee8f9fb68c0983	-1.4572635067992796e-05
35	0x3f78c6d6bed8b3fb	0.006049002503954344
36	0x3f843c2204333d4c	0.009880319359949617
37	0x3f622d77269f3397	0.002218945232903068
38	0x3f74f42716fa1402	0.005115654653882197
39	0x3f86df7a67541e0c	0.011168438223207587
40	0x3f92eff000db1990	0.018493413974988437
41	0x3fa4b8b40a85cc5b	0.04047167423677741
42	0x3f883c5a1d9e1cb9	0.011833862332208832
43	0xbf90f8000252952a	-0.016571045057067448
44	0x3f67062b71986db2	0.0028105591307061245
45	0x3f6fefcabb24f9db	0.0038985213842856864
46	0x3f673d9cdcc31a5f	0.002836996433049507
47	0xbf3fdc07cec0b30c	-0.0004861373006431059
48	0xbf05b7fc829c2068	-4.1425126552197694e-05
49	0xbf53c0b5c0d4738d	-0.001205613606834552
50	0xbf4406dd4122d28a	-0.0006111698478635391
51	0x3f783d70d68773fc	0.005917969487623683
52	0x3f81e11621bf83da	0.00873009958735509
53	0x3f14af7927790992	7.890870062347e-05
54	0x3f19be7d36b129ac	9.820594066060087e-05
55	0x3f219ce731911eec	0.000134375783803479
56	0xbef49ef6a52c1a04	-1.96656713553848e-05
57	0x3f01405238fdf5ef	3.2904156909357186e-05
58	0xbf26995dea52d88e	-0.0001724173681957913
59	0xbf282f306fbed5eb	-0.00018451181665361747
60	0x3f152193adc0ee95	8.060897693068011e-05
61	0xbee82b2c7c720c47	-1.1524509217380792e-05
62	0x3ef62861e1d68a83	2.1131270946060057e-05
63	0x3f66f8dee9d9a4a6	0.002804217698941419
64	0x3f960d5347ac6c59	0.021535207032780643
65	0x3f90bce833f16af7	0.01634562317881724
66	0x3f950febf4a4d2d4	0.020568548972010728
67	0x3f9fd719858a9afc	0.031093977714273344
68	0x3fa68f6d1ec332c0	0.04406300545233455
69	0x3fa2b7725665398a	0.03655583672172032
70	0xbf9b664e6b2aff28	-0.026757455149662907
71	0xbf97dc13fbf2a8a6	-0.023300468685797292
72	0x3fa07ebb172592e9	0.03221687943986302
73	0x3fa037e7bd9f629e	0.03167652311066614
74	0xbf95bb51ae2975cd	-0.021222378020288524
75	0xbf67343e03adacbc	-0.0028325282304898208
76	0xbf700c3b59d40877	-0.003917915191097624
77	0xbf6d12cc2fff6265	-0.003549002460186567
78	0xbf59f8c15a5f6823	-0.0015851867878979929
79	0x3f72e6eae385f573	0.00461475137160271
80	0x3f79b27bf2aba953	0.006273731395348331
81	0xbf0dd34bbc43469b	-5.688738704779963e-05
82	0x3f235527a14d0787	0.00014749630704541055
83	0xbf24e4e221cfd26d	-0.00015940914536795599
84	0xbf2df1ea5a354bfb	-0.00022846208330892779
85	0xbf29b868713a03ea	-0.00019623064928356244
86	0x3f1be6ced02ef507	0.00010643613136003894
87	0xbef32271434393d1	-1.8248120071801523e-05
88	0xbf25404c2336952d	-0.000162133497366637
89	0xbeb385220700c614	-1.1634856740379804e-06
90	0xbf2d75949bf2b4f1	-0.00022475661351021401
91	0x3f6919c8f027b27e	0.003064053017843015
92	0x3f9fa719f3245dc1	0.030910878625119546
93	0x3faa5b2b2bd4e457	0.05147681150487731
94	0x3faa9f9e45c72a49	0.05199904062063305
95	0x3fb5b25de6e5c056	0.08475291144509475
96	0x3fbc089669d81848	0.10950603565297101
97	0x3fb4c1dba42da602	0.08108303793201091
98	0x3fb3bb3026aa786b	0.07707501358024309
99	0x3fa992a116fc795c	0.04994681745141591
100	0x3fb3dda2c26f5a29	0.07760064360568521
101	0x3faac76905a8a28d	0.05230262941433237
102	0x3f70c7923ed266cc	0.004096575995527107
103	0x3f96787d16b5c7b4	0.02194400263892478
104	0xbf86a95743e195e4	-0.011065179595059989
105	0xbfa0bb2a9d482f5f	-0.03267796678491552
106	0xbfa7a5bce6b67733	-0.046186354792764915
107	0xbfa54c5ac958b6ba	-0.041598164633211934
108	0xbf951425a535b430	-0.020584667404751567
109	0xbf61f82cf739a652	-0.0021935346829209746
110	0xbf3034ed278f6d71	-0.0002472952833707165
111	0xbf22ac76877b7254	-0.00014246889963133674
112	0xbf18593816e0b6ee	-9.288220255207109e-05
113	0x3f03e182c4e2a0ab	3.7919810538967806e-05
114	0xbf24477bd6a68cd2	-0.00015471827221089654
115	0x3f24707edd7e413b	0.0001559405197864102
116	0xbf1c219382f16d02	-0.00010731184805605826
117	0xbf5ef9ad4732dc0a	-0.0018905822915209502
118	0xbf831f763df71782	-0.00933735252955237
119	0xbf8d379afb9b4e41	-0.01426621513693427
120	0x3f96ca07db12df33	0.022255060907553314
121	0x3fa055b8213ab061	0.031903986030869864
122	0x3fb2562ae1490aee	0.07162731170778233
123	0x3fbe2ff9bdfc9961	0.1179195488772158
124	0x3fc66bd6fafb94d7	0.1751660085202846
125	0x3fc7af993e3ddead	0.18504634417671664
126	0x3fb6b84b1c709807	0.08874959415751969
127	0x3fc049acc864edff	0.1272483805167752
128	0x3fc8f01d1f2ff373	0.1948276903421192
129	0x3fb139d19d2b1cbd	0.06728849494094198
130	0x3f82f020e5d4f245	0.009247071279440475
131	0xbf6489ee541a3db7	-0.002507176862145601
132	0xbfb4c095de9c12c6	-0.0810636204224223
133	0xbfb5ac02fdc5a0fb	-0.08465594001393477
134	0xbfb47c0bf499134d	-0.08001780244474084
135	0xbfb3c24a3c63e81b	-0.07718337988254158
136	0xbfabf9682dbcf505	-0.0546371990044268
137	0xbf92c93622e22491	-0.018345685843574492
138	0xbf2449c7394b688d	-0.00015478665286289655
139	0xbf5cc14b6caca2a2	-0.0017550694053147038
140	0xbedac926aff7fe2e	-6.386219637998952e-06
141	0xbed2a8479cef52ee	-4.448257143037312e-06
142	0x3f2b781bd3782fd9	0.00020957317040914863
143	0xbf38c80f712e54a7	-0.00037813546185223385
144	0xbf658e26d88d85a0	-0.0026312597951096556
145	0xbf836eecad6700eb	-0.00948891548330307
146	0x3f71451ac2499cb0	0.004216293837635707
147	0xbf92021acb683209	-0.017586153664568758
148	0xbfa97dbe368ca0a7	-0.049787468108037296
149	0xbf64691d8ecacfda	-0.0024915292072708985
150	0xbfa7c5c57869395b	-0.0464307507978556
151	0x3fb8b12e29021a82	0.09645355702569172
152	0x3fc195a7ae6cfb1f	0.13737960831527915
153	0x3fc322718eabec40	0.14948863474259788
154	0x3fc55d3585ae4cfc	0.16690701510797357
155	0x3fc93d35c437118f	0.19718048172775268
156	0x3fd1d308f7d3de2f	0.2785055561248297
157	0x3fd28936ddd0028a	0.28962489758854615
158	0xbf963e5991a61490	-0.021722220911688128
159	0xbfbc44b29e6ca512	-0.11042324416907359
160	0xbfb7a8e301da14ba	-0.09242075724803814
161	0xbfbfa6a0d2a60a79	-0.12363629477298756
162	0xbfc43ef00699c231	-0.1581707031468951
163	0xbfc4f8d845c8a859	-0.16384414107716586
164	0xbfbdd32e9e971008	-0.11650363323047952
165	0xbf9f65db20256574	-0.03066198714927766
166	0x3f81abeb1b2b919b	0.008628689543407833
167	0x3f9015ce1c66d36f	0.01570817993497847
168	0xbf16f2035f429df2	-8.75296171353108e-05
169	0x3f2c6a3389576e9b	0.00021678809268520647
170	0xbf1a3c4ea56ba872	-0.00010008077638770806
171	0xbf7f3981745c91a3	-0.007623201066767757
172	0xbfa426c8ccd74ad0	-0.039358401303294266
173	0xbfa6b7845ec5fe4f	-0.04436887413885115
174	0xbf90effd558b5e9a	-0.01654048761960656
175	0xbf540acbd5aba076	-0.001223277146602112
176	0x3fa9f91c1dfb7236	0.0507286821936969
177	0x3fa0c81abe84fba4	0.03277667594601688
178	0xbfabc1cc735939f3	-0.0542129412466358
179	0x3fb47281015a84be	0.07987219126745779
180	0x3fcf32c8b1c4bc8a	0.24373730354406958
181	0x3fa637aad67610fb	0.04339345806059388
182	0x3fb14d98d9e3d634	0.06759028739528433
183	0x3fd257e54a33d264	0.28661472555476153
184	0x3fe60d1fbb614cdf	0.6891020450369999
185	0x3fe83d067ae19529	0.7574493789694873
186	0x3fb3fee49a96b4fd	0.07810810827387012
187	0x3f9b5c67c2d2d5eb	0.026719685808265153
188	0x3f84bc0968a16b2b	0.010124276643343663
189	0x3fa2a917e0fcd28b	0.03644632932119859
190	0xbfbb9949b80792df	-0.10780773871335779
191	0xbfcc2bc618f8e601	-0.2200858709273206
192	0xbfca3c7e875d7286	-0.20497113809223694
193	0xbf91760928986505	-0.017051833250751453
194	0x3fab3bf022077c69	0.05319166579624197
195	0x3f91cd1af0c5bfa8	0.017383976884445623
196	0x3f4362b7d8fe7cbd	0.0005916021054765058
197	0x3f277ffe439fabcc	0.00017929056940543667
198	0xbf250dbdcc976f83	-0.00016062681088057856
199	0xbf93ce9d48a6ee5e	-0.019342858847933513
200	0xbfafef83a2cf0312	-0.06237422335062183
201	0xbfb8d2be5501e5b4	-0.0969656903779626
202	0xbfb38bb5c3269292	-0.07635055555744888
203	0xbfb8636357651611	-0.09526654132522362
204	0xbf90aaa9ecfcb263	-0.01627603062586259
205	0xbf9e1108d93d4838	-0.02936185670780153
206	0xbfc0c43027e47fb8	-0.13098718593482572
207	0xbfb37fcac6b3a0ce	-0.07616870261302042
208	0x3fb36274e9f12d4c	0.07572107993580807
209	0xbfb20c283d3abb60	-0.07049800391062666
210	0x3fc20f5e359d2d6f	0.14109399431104516
211	0x3fe214c16f161a2d	0.5650336427359598
212	0x3fea00d1db43690c	0.8126000673758269
213	0x3fe751d81deea4f4	0.7287407478917474
214	0x3fc1a17fa0b95344	0.1377410445008086
215	0xbfc10382f8e354d3	-0.13291966583952916
216	0x3f8967b762eee3f6	0.012404854494763012
217	0x3fa8d0258a561bbb	0.04846303285290029
218	0x3f7247826fc589fa	0.004462728040695025
219	0xbfc91113b1e7e094	-0.1958336466484566
220	0xbfc67a8d488ccd73	-0.17561498682480767
221	0x3fb0a3e08a92436f	0.06500056632127181
222	0x3f99da01bd2bb5d9	0.025245692416253938
223	0x3f78ff896af78021	0.006103073872026272
224	0x3f50d2170342244c	0.001026651833884412
225	0x3f2aa705593a3d26	0.00020334186830382148
226	0xbf86e62bff2ee2af	-0.011181205487319571
227	0xbfa2363604d0b29f	-0.03556984719066247
228	0xbfba3e6bd2d0d550	-0.10251497170323387
229	0xbfc7dde7d93169a8	-0.1864595232498918
230	0xbfb5c47040bd254e	-0.08502866344965307
231	0xbfbd68728a87d566	-0.11487499124617315
232	0xbfcb0360571b3128	-0.21104053738816586
233	0xbfc7d46e9d462bb5	-0.1861704128208125
234	0xbfc9f6ac9b601424	-0.20284040056881836
235	0xbfd090d447527bfc	-0.2588396736627485
236	0xbfa33e1fee8cea3c	-0.037583349103858826
237	0xbfbc5dcdb1b02d2e	-0.11080632770624696
238	0xbfbadd994e3606f4	-0.10494383010339076
239	0x3fd36e0f92d698ba	0.30359258021998026
240	0x3fe361feebc8547e	0.6057123761298866
241	0x3fd5db19a67f56f9	0.3414978147460342
242	0xbf8dda0cc35a047d	-0.014576053344401036
243	0xbfb5b29c62372d27	-0.08475663564529566
244	0x3fb072b8f1d8d532	0.06425052551715707
245	0x3f8a236e47ac8dca	0.012762891352003165
246	0xbfa68fd07d078f54	-0.04406596685637845
247	0xbfa7bdd0a2c32b3e	-0.046370048397497574
248	0xbfb92f5b34464cfb	-0.09837884927974365
249	0x3fc0bba9e363df9f	0.13072703936609018
250	0x3f848d28391f7298	0.010034860842943957
251	0x3f89c868d99382a2	0.012589282169245767
252	0xbef723d8ece5ed00	-2.2068051117579875e-05
253	0xbf1fa41a43a94321	-0.00012070093445372107
254	0xbf95fa6e85e7ec5a	-0.021463133738489716
255	0xbfb00fffff982e56	-0.06274414053057717

thetaListLambdaHundred f8 [19885]
0	0xbff1470e3b2a08c7	-1.0798475562192367
1	0x3ea22d842dca1996	5.417406004494526e-07
2	0xbecaa98074e37499	-3.178371947061705e-06
3	0xbebd595997411edb	-1.7493381081634747e-06
4	0x3ece2c5ee0be1759	3.59694036506073e-06
5	0xbed1ae76ce240d89	-4.2155981836463e-06
6	0xbec36a7ef551739d	-2.31456753367475e-06
7	0xbec544e843b723c1	-2.535482534791735e-06
8	0x3ecba66ea4b720f6	3.296151850771499e-06
9	0x3e9d82c6a7381f0a	4.3974583904857633e-07
10	0x3eb3366c8e44d6a4	1.14515983635819e-06
11	0xbecfbafbec4cd2ff	-3.7825592208669046e-06
12	0xbeb5649dcfb8434c	-1.275124133285661e-06
13	0xbef18ebe0d04af5a	-1.674422020518595e-05
14	0xbf339eca0637575a	-0.0002993815635056095
15	0xbf337ea4b7bdcfa3	-0.0002974655287666333
16	0xbeeb3802edf1a434	-1.2978932714529259e-05
17	0x3ed0371ec19fce58	3.866031898159041e-06
18	0xbec85c15c9c2b88f	-2.903903420024027e-06
19	0xbeb39429b254d7c8	-1.1669851088364338e-06
20	0xbec33067c330ac50	-2.287516986073465e-06
21	0x3eb5a1dd322e45b5	1.289384450518409e-06
22	0xbed17f99801a27c0	-4.171952242901526e-06
23	0xbecd3a9c8a69a105	-3.484362497464227e-06
24	0xbec4b2b63d4bb4d2	-2.4674049917601895e-06
25	0x3ec6b4341114c840	2.7065181106506527e-06
26	0x3e93cb6be36ce004	2.949627488260493e-07
27	0x3ed0f5964c8b7f2d	4.043418080995441e-06
28	0x3ec9b43461d32673	3.0641465530209575e-06
29	0xbebb384165e212d4	-1.622423404097261e-06
30	0xbec232c49edb0852	-2.16940792693944e-06
31	0xbed16141c1c8e7cc	-4.143693356934178e-06
32	0x3eb9e66e42659017	1.5437674477309212e-06
33	0x3eb3434d94785bdf	1.148158462421207e-06
34	0x3e921bc34a304ffe	2.6983691209345347e-07
35	0x3f1ce38430f7efa5	0.00011020178157389192
36	0x3f233dcc0664a15a	0.0001468001893922915
37	0xbf2c3953c63fe21a	-0.00021533153187626512
38	0x3f5584d9a8c6c978	0.0013134122446954704
39	0x3f63f91cc686ad70	0.0024381219884241287
40	0x3f6add22f4b165ad	0.003279274247273553
41	0x3f6dcb59dc56acd9	0.003637004384207648
42	0x3f5da4aac8cf68ef	0.0018092792336035742
43	0xbf2c223036ce3767	-0.00021464193869430022
44	0x3f3b541d28baa129	0.00041700088398012814
45	0xbf51b4ecf51e2ebd	-0.0010807336843496184
46	0xbf5252c5e0f54cdf	-0.0011183674249267068
47	0x3f55bd86100f3354	0.0013269242483488668
48	0x3f5855254b99934f	0.0014851440631897422
49	0x3f59c4176f928a60	0.0015726307740712361
50	0x3f4fc892ff65964f	0.0009699552308972211
51	0x3f18a0961b061550	9.39456574596449e-05
52	0x3f109a59adc1ba18	6.333515506338377e-05
53	0xbeb8837ed8d870b5	-1.461127655650322e-06
54	0xbebe822d6029ecf3	-1.818448595840649e-06
55	0xbec4df5b3f247ca9	-2.4881942347756135e-06
56	0x3e986fee259665e4	3.6414306733289357e-07
57	0xbea471a3fc7623a3	-6.092759514002233e-07
58	0x3ecac80d7cc7a0cf	3.1925983192578932e-06
59	0x3ecca8facfc3f05f	3.416547427302323e-06
60	0xbeb90ab74d7d6d9e	-1.4926111386513479e-06
61	0x3f0c13d170ce632d	5.3553418275237255e-05
62	0x3ef09d0b60ffa226	1.584382522415626e-05
63	0x3f15fe81d795e498	8.390109532809204e-05
64	0x3f518b5ad2f232a5	0.0010708224251942202
65	0x3f6cdbda0516f31e	0.003522802181321074
66	0x3f7f4066bc23214c	0.007629777248617419
67	0x3f8de5d45d1468e5	0.014598521318977162
68	0x3f8b0704bce4c0e4	0.01319698049027846
69	0x3f8e860d8a0cb9b4	0.014904123092119949
70	0x3f86e21d889d7df6	0.01117346833387865
71	0x3f839b29c6fe1554	0.00957329405333477
72	0x3f73426be5be2483	0.004702016329141692
73	0x3f82bd886d3c652a	0.0091505678497464
74	0x3f8b6dadc13a31c8	0.013392789325075052
75	0x3f94d7b510e73581	0.020354108006178876
76	0x3f918b74cd65e6e4	0.017133545910360662
77	0x3f89dd352f3c67a3	0.012628951553370465
78	0x3f874e73e524584e	0.011380105429037137
79	0x3f7e317392631fb7	0.007371379330102393
80	0x3f5aefdb7d774cb2	0.0016441005189918143
81	0xbf628e4d7619f2fb	-0.002265120784441852
82	0xbf5a501394135ebe	-0.0016060057826531716
83	0x3ec8c2ca412acc77	2.9517291378566482e-06
84	0x3ed1be50b3d3602a	4.23036072768477e-06
85	0x3ece7af87ef00853	3.6335413748931488e-06
86	0xbec0885b3290404f	-1.9708444551972183e-06
87	0x3e96acfcac082e0d	3.378947149030444e-07
88	0xbee8cf88bc396c9e	-1.1830654222658086e-05
89	0x3f0ebcd0baeb00bc	5.8627242983445735e-05
90	0x3f621bb10ff1c906	0.0022104700324742125
91	0xbf2fb405938dbf51	-0.0002418762976747987
92	0xbf612a12d1df5f08	-0.0020952575277809506
93	0xbf65a2ccc3a6d08d	-0.0026411055852922417
94	0xbf791f1a50b3fea3	-0.006133177560741085
95	0xbf88157d7026d9d0	-0.011759738907909517
96	0xbf8e59e11453e4ed	-0.0148198685005689
97	0xbf8e0aae28443e9b	-0.014668808559263715
98	0xbf6eb2d40822d323	-0.003747381329129233
99	0x3f927807c936ef4c	0.018036004692233917
100	0x3f9060d23cf0d436	0.015994343728568526
101	0x3f88e2a99d492e04	0.012151074516757461
102	0x3f9785e6702a6e8a	0.022971726032308605
103	0x3fa335650f5162fb	0.037516744727957595
104	0x3fa62b2daa82885a	0.04329817491931527
105	0x3fa8c64ebe402248	0.048387966846409614
106	0x3fa1494da9c56d4d	0.03376238534357388
107	0x3f9347be0d33bd3d	0.018828362994949933
108	0x3f876a4e94baffc5	0.011433233178990929
109	0x3f6a54c2bc206425	0.0032142451682486578
110	0xbf52f3961790847c	-0.001156708311335102
111	0x3ec6212c619db4b0	2.638051921735768e-06
112	0x3ebcdac9bb263ebd	1.7198706073507524e-06
113	0xbea78f6a7fd62167	-7.021492362405851e-07
114	0x3ec80842c79c867f	2.864869711142342e-06
115	0xbe9bd4053a706360	-4.146725651201922e-07
116	0x3f0e25921545e194	5.750038204416493e-05
117	0x3f3e2f7b5067cff5	0.0004605938014770044
118	0x3f5916d4696b3cd3	0.0015313219388877655
119	0xbf745c15c7ab5d9a	-0.0049706316737777815
120	0xbf6fce2f8316c9c2	-0.0038824966402099823
121	0xbf77e0159a79de61	-0.005828937900893645
122	0xbf946a3a4d9d3576	-0.019936476695240533
123	0xbf97cbba4fde31fd	-0.023238097309830497
124	0xbfa22f271c8cac9e	-0.03551599715714214
125	0xbfae2ed611321bbb	-0.058951081847275565
126	0xbfab1148d76b74e0	-0.052866245552402935
127	0xbfa840c6391c54c2	-0.047369188758389594
128	0xbfa8ea7256efc2cb	-0.04866368590581301
129	0xbfa635e82a0838fe	-0.04338002694213293
130	0xbf8ddef7e92b55e6	-0.014585434726010992
131	0x3f917c097d01868d	0.017074726347692738
132	0x3fa27ba42112c2dc	0.036099556958452544
133	0x3fa250a35bf78573	0.03577147004740313
134	0x3f92f89d4c1c3511	0.01852651383437826
135	0x3f88333b9d41a2c3	0.011816468941291963
136	0x3f7177b5aefee371	0.004264554692718346
137	0x3f6418219cde3e46	0.0024529129504527207
138	0xbf16ce8b8d5c0e96	-8.700110205600085e-05
139	0x3f43d90c3cee0391	0.0006057080989735221
140	0x3e7fbe30994c457d	1.1825162566879384e-07
141	0x3e761c3745db22be	8.23669820917414e-08
142	0xbed046c3629b5e2c	-3.880600653003877e-06
143	0x3f314017a89343d1	0.000263219619751229
144	0x3f669779775bbe5e	0.0027577755343981955
145	0x3f7017598557079d	0.0039285180004657
146	0xbf54d773444873d0	-0.001272070470015086
147	0xbf6b19ad58698498	-0.0033081422473491655
148	0xbf77b7a181713f69	-0.005790358430274847
149	0xbf94f077229cc955	-0.02044855259664165
150	0xbfa011fd47a0ae8a	-0.031387248033152806
151	0xbfa55cbaf4845d33	-0.04172310099436984
152	0xbfa55a828da4a02e	-0.04170616129914638
153	0xbf9e547b775d389d	-0.029619149361047026
154	0xbfa83e9d9df8f065	-0.047352719815962264
155	0xbfa52fb13e5db233	-0.041379488814389374
156	0xbfa3c67b348edcae	-0.03862366692140405
157	0xbf930d9bcedb6370	-0.018606600285099473
158	0x3f9850c9ef805d92	0.02374568485546786
159	0x3fa318eed250dc83	0.03729959790546735
160	0x3fa8c92308a6ef87	0.04840955238930094
161	0x3fa297e96895ac62	0.03631524469059212
162	0x3f933d1be587cb7d	0.018787799724985888
163	0xbf72feb4627b742c	-0.004637436511726139
164	0xbf623536477dd836	-0.0022226390973925326
165	0xbf52c6f8d398102b	-0.0011460714289350897
166	0x3f541d471a8b0cc9	0.0012276834842602105
167	0x3f4a19ccad891877	0.0007965325740506697
168	0x3ebb311ac66e3976	1.6207584623038126e-06
169	0xbed0d63619314bef	-4.014197105456175e-06
170	0x3ebf1747bdaf46d1	1.8531643408603114e-06
171	0xbf5aa406c9381033	-0.0016260210294385513
172	0x3f6d74bf62ab83c4	0.003595708655993653
173	0x3f7dbaf85bfce135	0.007258386758444414
174	0xbf6a4ccb59a1d241	-0.003210446518148197
175	0xbf94452b837262f6	-0.019795112512471534
176	0xbf9e366e45fe60a3	-0.02950451185424242
177	0xbfa5287281d4c3a6	-0.04132421336033269
178	0xbf993fff02cd0018	-0.024658188386865815
179	0xbf902e035e5ae1c8	-0.015800526269886622
180	0x3f95cd0ea6f3b508	0.02129004377359414
181	0x3fa79e4b47d4cd9b	0.046129562872376094
182	0x3fa6c652146fd129	0.04448181628677823
183	0x3faf63ed22f58f5b	0.06130925227878833
184	0x3fbe179e2c8652b4	0.11754788004902644
185	0x3fc1875425e58e0a	0.13694240427422272
186	0x3fbe164a05e53e4c	0.1175276054757372
187	0x3fb9fea12f6bd224	0.10154158981078659
188	0x3fb3809fd16ecd42	0.07618140090089745
189	0x3fa3d4d431b5fc18	0.03873313052007904
190	0x3f8acf000362314d	0.013090133765466883
191	0xbf7b2f4af938f687	-0.006636898866018043
192	0xbf7d6d6cd19fa2a0	-0.0071844340072650115
193	0xbf91031ae70aeaf2	-0.016613407470439996
194	0xbf803b845cf20ca8	-0.007926019751044969
195	0xbf6bc1f7ab424aea	-0.003388389328457965
196	0xbf2f1ba3a337f30b	-0.00023733494309387983
197	0xbecbd95c4f9cc475	-3.3198672299219303e-06
198	0x3ef924a49b6cb937	2.397836370986972e-05
199	0xbf6d62d341fc323b	-0.0035871626022354864
200	0xbf6ebfdfbd6859ba	-0.003753602020206884
201	0xbf857eab738ef847	-0.01049550959021074
202	0xbf9b801fbef2ed53	-0.0268559418006878
203	0xbfabe495e481d42e	-0.05447834410089346
204	0xbfac7cdddfccc451	-0.055640157288856636
205	0xbfb002f03cf7d425	-0.0625448368881086
206	0xbfac05ee22dd0500	-0.05473274398401351
207	0xbfa006fdbbfe178d	-0.03130333823996443
208	0xbf72878553fae0af	-0.004523773968394248
209	0x3f91f3a1fb82bc55	0.017530947662347824
210	0x3fa7504a1084aa75	0.04553443385733128
211	0x3fbca2fea5f77735	0.11186210205002285
212	0x3fc8285c369fdb56	0.18873169581612598
213	0x3fc75f0561822afb	0.18258731137424164
214	0x3fb694d8fffd412b	0.0882087349866693
215	0x3f9b4a7db6b43117	0.02665134837757063
216	0x3f6512d469439e8f	0.0025724552780167008
217	0xbf9cb4735120f4b0	-0.02803211386366361
218	0xbfa6c38587a7a0f3	-0.04446046143476847
219	0xbfaaa653d3fc9667	-0.052050227763442085
220	0xbfa2f1aa5cad9878	-0.0370000112659889
221	0xbfa26d492e583b5e	-0.03599003496866858
222	0xbf9cdee8fcbedd36	-0.028194084574093746
223	0xbf821e589ba91b23	-0.008846943140395752
224	0xbf350fe07e355217	-0.0003213809088340748
225	0xbecf95be42431346	-3.7652175866896644e-06
226	0xbf538e1514d042b2	-0.001193543040475625
227	0xbf841370ef017ea7	-0.009802706045035704
228	0xbf919101dee8d4d2	-0.017154721479717257
229	0xbfa1a28ab95f1eda	-0.03444322121464234
230	0xbfa7ac1a9cda14a5	-0.04623492397971888
231	0xbfb0c6ee59b33640	-0.06553544702475111
232	0xbfb1c1a07f518e73	-0.06936076267589346
233	0xbfb138982bb42d7e	-0.0672698122690942
234	0xbfb260a84cdb5683	-0.07178737522493787
235	0xbfb2f0f7425dd0d5	-0.07398934717440693
236	0xbfb36ae7928c8691	-0.07584998443464942
237	0xbfaaef086fe40ffd	-0.05260492673735937
238	0xbfa8d04996e587ba	-0.04846410719871082
239	0xbfab0138346176fb	-0.05274367942250354
240	0xbf9764388900674e	-0.022843249666130654
241	0xbf9a77171509fa4a	-0.025844917925946377
242	0xbfb2122be2af0540	-0.07058977398175603
243	0xbfb872a8441c0796	-0.09549953139142384
244	0xbfb5a1c5dbb4806f	-0.08449970830815955
245	0xbfaff49a833ec157	-0.06241305210221764
246	0xbfb1574939ca1fc3	-0.06773812924268356
247	0xbfabe0c7f110b524	-0.05444931810084544
248	0xbfa45851a0bb85bf	-0.03973631941859023
249	0xbfa6b38f7baa076e	-0.04433868774960002
250	0xbfa1051b78f31105	-0.033242090715733176
251	0xbf7c8333800fb968	-0.006961060688793409
252	0x3e9b6c29579fb24a	4.086271797588152e-07
253	0x3ec2bf95fc32d758	2.2349813391897895e-06
254	0xbf638cf5f65d443b	-0.0023865512802463663
255	0xbf8e1ff6159cba68	-0.014709398779442398
